workspace/cfg/Twip.pth.onnx (onnx, 169788 bytes, 7 tensors)

model.a2c_network.actor_mlp.0.bias f4 [256]
0	0x3c82ed83	0.015982395
1	0x3d1affbc	0.037841544
2	0x3c16f804	0.009214405
3	0x3d608730	0.054816425
4	0xbc8313f3	-0.016000723
5	0xbd4be8a6	-0.049782418
6	0x3c8a6a65	0.016896436
7	0xbc1a408c	-0.009414803
8	0xbe0ea397	-0.13929592
9	0x3d71da4c	0.059046075
10	0x3c7d0274	0.015442479
11	0x3bb68e55	0.0055711665
12	0xbc31aefb	-0.010844941
13	0x3bd90095	0.006622384
14	0x3c9a40aa	0.018829662
15	0xbde5c587	-0.11219316
16	0x3d0ead2a	0.03483311
17	0x3b76a297	0.0037633532
18	0xbd25d96a	-0.040490545
19	0x3c615fc1	0.01375574
20	0xbd1926dc	-0.037390575
21	0xbd8a8a65	-0.06764678
22	0x3c5bf2b2	0.013424562
23	0xbdf7efb5	-0.12106267
24	0x3d029bd8	0.031886905
25	0x3925e42a	0.00015820624
26	0xbd0ec0af	-0.034851726
27	0x3d8f4e16	0.069973156
28	0x3d0fe724	0.035132542
29	0x3cd3c347	0.025849951
30	0xbd34c90f	-0.044137057
31	0xbcdc364f	-0.026881365
32	0x3cec9579	0.028879868
33	0xba574e99	-0.0008213311
34	0xbda5a954	-0.080889374
35	0x3db5d741	0.08878947
36	0xbdcf0b4c	-0.101095766
37	0x3c4269d4	0.011866052
38	0xbd5f6591	-0.05454022
39	0xbc26acc6	-0.010173028
40	0xbddcbdb1	-0.10778368
41	0x3c2275c6	0.009915775
42	0xbc5a43f9	-0.01332187
43	0xbd26ff02	-0.04077054
44	0xbbb3c405	-0.005486014
45	0x3cbab948	0.022793427
46	0xbd87d0a2	-0.066315904
47	0x3c68f2ac	0.014218014
48	0xbd8b6472	-0.06806268
49	0x3bc8e8f3	0.0061312853
50	0xbdafb172	-0.08578767
51	0x3c896194	0.016770162
52	0x3c88e090	0.016708642
53	0x3c50811e	0.012726096
54	0x3c5d0af8	0.013491385
55	0xba039fe1	-0.0005021077
56	0xbbfb18fa	-0.0076628895
57	0xbd994076	-0.07482998
58	0xbd84ffde	-0.06494115
59	0xba595173	-0.000829003
60	0x3cc62b5e	0.024190601
61	0xbb2641e9	-0.0025368875
62	0x3b65b9ec	0.0035053445
63	0x3c8de746	0.017322194
64	0xbb6fda57	-0.0036598647
65	0xbd71a622	-0.058996327
66	0xb9587ee6	-0.00020646639
67	0xba9764d6	-0.0011550437
68	0x3d07af29	0.03312603
69	0xbdc541cb	-0.0963169
70	0x3db57268	0.08859712
71	0x3a725cb9	0.0009245384
72	0x3d2c9b5e	0.042140357
73	0xbdcd57fd	-0.10026548
74	0x3c71b3bb	0.014752324
75	0xbdafadda	-0.085780814
76	0x3d94661f	0.072460406
77	0xbab35d8c	-0.0013684495
78	0xbd5de8cb	-0.054177087
79	0xb871c7da	-5.7645004e-05
80	0xbda55cf6	-0.080743715
81	0xbc9c8698	-0.019107148
82	0xbd997fa7	-0.07495051
83	0xbc0fc8dd	-0.008775917
84	0xbdac2b2e	-0.08406673
85	0x3dac550e	0.084146604
86	0xbda277db	-0.07933017
87	0xbbdbc102	-0.006706358
88	0xbd150933	-0.036385726
89	0x3d8060da	0.06268473
90	0xbceaa2cb	-0.028642079
91	0x3d5109ba	0.051034667
92	0xbd805955	-0.06267039
93	0xbbf2f72f	-0.0074147205
94	0x3d0e1134	0.034684375
95	0xbc3d156e	-0.011540754
96	0xbcc0274e	-0.023456242
97	0xbd1ee266	-0.03879013
98	0xbceb6204	-0.02873326
99	0xbaefe649	-0.0018302883
100	0x3d9c95f0	0.07645786
101	0xbd539a45	-0.051660795
102	0xbcc9cd97	-0.024634166
103	0x3db0f77e	0.086409554
104	0x3d6bea8f	0.05759674
105	0xbbf59624	-0.007494705
106	0x3b5a10b6	0.003327412
107	0xbd2a6474	-0.041599706
108	0xbc84c298	-0.01620607
109	0xbdac5e52	-0.08416428
110	0xbdadeefb	-0.084928475
111	0xbce1b7b3	-0.027553415
112	0xbc866c87	-0.016409172
113	0xbe04e15c	-0.12976593
114	0xbd41cb5b	-0.047313076
115	0x3ce542d1	0.027985962
116	0x3d6ec3d9	0.058292244
117	0x3d616ba7	0.055034306
118	0x3d2a1e62	0.04153288
119	0xbd793698	-0.06084308
120	0xbb59c5fe	-0.0033229585
121	0xbd3bb9ae	-0.045831375
122	0xbc4bd4b5	-0.01244085
123	0xbd8199f6	-0.06328194
124	0x3d11916d	0.03553908
125	0x3d82aeb0	0.06380975
126	0x3da4f20f	0.080539815
127	0xbd40e68e	-0.047094874
128	0xbd2bd36a	-0.041949667
129	0x3c6ad8ad	0.014333886
130	0xbd68a217	-0.056795206
131	0x3cf18335	0.02948151
132	0x3d69a1d2	0.05703909
133	0x3bfbbb68	0.0076822527
134	0xbce2ca47	-0.027684344
135	0xbcb66484	-0.022264726
136	0xbb621de4	-0.003450268
137	0xbd15616a	-0.036469854
138	0xbd995610	-0.07487118
139	0xbca36f10	-0.01995042
140	0xbbce4a28	-0.006295461
141	0x3c674479	0.014115446
142	0xbb7fdac1	-0.00390403
143	0xbd5d0aad	-0.05396526
144	0xba474d0d	-0.0007602729
145	0xbb5aa94e	-0.0033365074
146	0x3d995096	0.07486074
147	0xbdc05f2b	-0.09393152
148	0xbd7d4277	-0.061830964
149	0xbd8ed706	-0.06974606
150	0x3b059525	0.0020383087
151	0xbb881bcb	-0.004153704
152	0x3caca03a	0.021072496
153	0x3cbd79a5	0.023129294
154	0xbd69c2d9	-0.057070587
155	0x3e0165bb	0.12636463
156	0xbc7df442	-0.01550013
157	0xbd2ada19	-0.0417119
158	0x3c8994f3	0.016794657
159	0xbd96afc1	-0.07357741
160	0xbc34bdc5	-0.011031573
161	0x3da11d84	0.07866958
162	0x3d31002a	0.043213047
163	0xb939f713	-0.00017735017
164	0x3c813670	0.015773028
165	0xbbe90f2e	-0.0071124053
166	0x3d34035b	0.043948513
167	0xbda681b1	-0.081302054
168	0xbbe14a9f	-0.0068753506
169	0x3d03c5a7	0.032170918
170	0xbd8b3e03	-0.06798937
171	0x3dafdbb1	0.08586825
172	0xb9819765	-0.00024717595
173	0xbc83ca60	-0.01608771
174	0x3c67336d	0.014111382
175	0x3b81a774	0.0039567295
176	0x3d98dab6	0.07463591
177	0xbddb2afd	-0.10701559
178	0x3d3302c4	0.04370381
179	0xbc671a9a	-0.014105463
180	0xba7aa8c2	-0.000956189
181	0x3d9debe3	0.077110074
182	0xbaaccf78	-0.0013184389
183	0xbc09d4eb	-0.00841258
184	0x3ab45b01	0.0013760031
185	0x3c6c2254	0.014412481
186	0xbdcd05a4	-0.100108415
187	0xbdb8863f	-0.090099804
188	0xbca68949	-0.020329135
189	0xbdc83367	-0.09775429
190	0x3a5f17a8	0.00085103
191	0xbd333a8b	-0.043757003
192	0xbded7185	-0.11593918
193	0xbbaabd82	-0.0052105794
194	0xbc04efd3	-0.008113819
195	0x3c285a79	0.010275477
196	0x3a3435dd	0.00068744813
197	0x3bb07036	0.0053844703
198	0xbbf711da	-0.00753997
199	0xbd8a71af	-0.06759965
200	0xbdb84ebe	-0.08999394
201	0x3d8b49d7	0.06801193
202	0xbd6b55da	-0.05745492
203	0x3d28cbb3	0.041209888
204	0xbd04a92c	-0.032387897
205	0xbc9fa4eb	-0.019487819
206	0xbd72bed2	-0.05926401
207	0x3b6ca502	0.0036109095
208	0x3d3859a6	0.04500737
209	0x3ca0daac	0.01963552
210	0xbd2a988d	-0.04164939
211	0xbde812c6	-0.11331706
212	0xbd9c9cc6	-0.0764709
213	0xbde8a360	-0.11359286
214	0xbc34483d	-0.011003551
215	0x3c2622b6	0.010140112
216	0xbc374ef9	-0.011188262
217	0xbb9a6265	-0.0047114366
218	0x3d5368e4	0.051613703
219	0xbe002924	-0.12515694
220	0xbb7f6625	-0.0038970795
221	0x3d3cd64e	0.046102814
222	0x3d2d4030	0.042297542
223	0xbd98fa2c	-0.074695915
224	0xbc784d01	-0.015155078
225	0x3d896437	0.067085676
226	0x3c35a29c	0.011086132
227	0xbdd84b16	-0.105611965
228	0x3a9510ad	0.0011372768
229	0xbb529ae6	-0.0032135784
230	0x3d8846b5	0.06654111
231	0xbd76f695	-0.060293753
232	0xbd3bdde5	-0.045865912
233	0x3c1e3ebf	0.0096585145
234	0x3ccdde3d	0.025130386
235	0xbc6cdbe0	-0.014456719
236	0xbe030bc6	-0.1279746
237	0x3cd01e04	0.025404938
238	0xbd1eacb4	-0.03873892
239	0xbb8e53a1	-0.0043434654
240	0x3d118486	0.035526775
241	0xbe014e2d	-0.12627478
242	0xbda0cb1e	-0.078512415
243	0x3d5657f3	0.05232997
244	0xbd894e39	-0.06704373
245	0x3c8a78fb	0.016903391
246	0x3d8407c6	0.06446795
247	0x3d7f4470	0.062321126
248	0x3d35e949	0.04441193
249	0xbd113ac3	-0.03545643
250	0xbd44d193	-0.048051428
251	0xbc5ebbed	-0.01359461
252	0xbc61c5e3	-0.01378009
253	0xbc930c40	-0.017950177
254	0xbda1e2a8	-0.079045594
255	0x3d036145	0.032075185

model.a2c_network.actor_mlp.2.bias f4 [128]
0	0xbd600283	-0.054689895
1	0x3d13c80b	0.036079448
2	0xbc63a06e	-0.01389323
3	0xbe968c3c	-0.29403865
4	0xbd5ca4cb	-0.053868096
5	0xbd726005	-0.059173603
6	0xbda96e3e	-0.0827298
7	0xbdceb003	-0.10092165
8	0xbd375e6b	-0.04476778
9	0x3c95aecb	0.018271824
10	0x3cdb8c76	0.026800375
11	0xbe6fe4cf	-0.23427127
12	0xbda4ebb7	-0.080527715
13	0xbdfeb6c0	-0.124372005
14	0x3d3ae8c1	0.045632128
15	0xbdb7a1b1	-0.08966387
16	0xbc9afd8b	-0.018919727
17	0xbde0692e	-0.109575614
18	0xbe01e3fc	-0.12684625
19	0xbcf797ba	-0.030223716
20	0xbd8a694e	-0.067583665
21	0xbbda5925	-0.006663459
22	0xbc85b04d	-0.016319418
23	0xbdcf855f	-0.101328604
24	0x3cb872e1	0.022515716
25	0xbe3e8532	-0.18605497
26	0xbc7806cc	-0.015138339
27	0xbc9d941e	-0.019235667
28	0xbc298a43	-0.010347906
29	0xbaf7b998	-0.0018899916
30	0x3cd48f21	0.025947155
31	0xbda46ba0	-0.0802834
32	0xbc7476f2	-0.014920937
33	0xbd23115d	-0.03981148
34	0xbda8925a	-0.08231039
35	0xba9bd269	-0.0011888269
36	0x3c295188	0.01033438
37	0xbcbc86bc	-0.023013465
38	0x3cbcb96d	0.023037637
39	0xbcc6f3cc	-0.024286173
40	0xbddc0f85	-0.107451476
41	0xbd8d9dc2	-0.069148555
42	0xbcd68abc	-0.0261892
43	0x3856f780	5.125208e-05
44	0xbe3fc98b	-0.18729226
45	0xbd29550f	-0.041340884
46	0xbd879187	-0.06619554
47	0xbd2db83c	-0.042412028
48	0x3d14a8c3	0.036293756
49	0xbc0d7067	-0.008632756
50	0xba9505ba	-0.0011369505
51	0xbd533ea5	-0.051573414
52	0x3d110179	0.035401795
53	0x3ba1a876	0.004933412
54	0xbe1135f2	-0.14180735
55	0xbd416e4c	-0.047224328
56	0xbd298b39	-0.04139254
57	0xbc6951a9	-0.014240661
58	0xbe2bd470	-0.16780257
59	0xbdcf3ef3	-0.101194285
60	0xbd76158b	-0.06007914
61	0xbd1ad61f	-0.037801858
62	0xbd1da339	-0.03848574
63	0x3d417ee4	0.047240153
64	0x3b9f27b7	0.0048570293
65	0xbe1be38e	-0.15223524
66	0xbd6d8d2f	-0.05799597
67	0xbdc9ddf2	-0.09856786
68	0xbd650ea7	-0.055922177
69	0xbdf3b24c	-0.11899242
70	0x3be1ed39	0.006894734
71	0xbc8bcedf	-0.017066417
72	0xbd5df615	-0.05418976
73	0xbd6390d8	-0.055558056
74	0xbb2892ed	-0.002572234
75	0x3d4209b9	0.047372553
76	0xbcde737c	-0.027154677
77	0xbdd2ed0c	-0.10299119
78	0xbe3347f6	-0.1750792
79	0x3cbf939e	0.023385819
80	0xbc8a939c	-0.016916089
81	0xbbeae2e3	-0.0071681603
82	0xbd5a32cc	-0.0532711
83	0x3c23281f	0.009958296
84	0xbc5b3c04	-0.013381008
85	0xbd9f8ec1	-0.077909
86	0xbd48653e	-0.048924677
87	0xbd9e01a5	-0.077151574
88	0x3c5aad34	0.013346959
89	0xbd64a3fa	-0.055820443
90	0xbd5362e6	-0.05160799
91	0x3be4a512	0.0069776857
92	0xba4d0a93	-0.0007821705
93	0x3d531009	0.051528964
94	0x3cbf3bb2	0.023343895
95	0xbdb78925	-0.08961705
96	0xbc31a09c	-0.010841515
97	0xbce91783	-0.028453594
98	0x3bbc7979	0.0057517854
99	0x3c36240a	0.011116991
100	0x3d16b075	0.036789376
101	0xbd654109	-0.055970225
102	0x3bf742a5	0.0075457864
103	0x3d0f9416	0.035053335
104	0xbe913a81	-0.28364947
105	0x3c1574fd	0.00912213
106	0xbc5147c0	-0.012773454
107	0xbca25411	-0.019815477
108	0x3c518674	0.012788404
109	0xbd404bbf	-0.046947237
110	0x3d56e0fc	0.052460656
111	0xbd22e585	-0.039769668
112	0xbe441e42	-0.19152167
113	0xbde75239	-0.112949796
114	0x3b4c6954	0.003119071
115	0xbca9b21b	-0.02071481
116	0xbd13b2df	-0.036059257
117	0x3d003787	0.031302955
118	0xbd1ce28b	-0.038301986
119	0xbc61d287	-0.013783104
120	0xbd64ccb3	-0.05585928
121	0xbcaf3040	-0.021385312
122	0x3d10323c	0.035204157
123	0xbd787c93	-0.06066568
124	0xbb180094	-0.0023193704
125	0xbbac98c2	-0.0052672336
126	0xbd8bc01c	-0.06823751
127	0xbd1d4c85	-0.038403053

model.a2c_network.actor_mlp.4.bias f4 [64]
0	0x3d4e7a35	0.050409514
1	0x3cc2fa0a	0.023800869
2	0xbdb3d0cc	-0.08780059
3	0xbd1923bc	-0.037387595
4	0xbdd7ba78	-0.10533613
5	0xbd2aed17	-0.041730013
6	0xbe0dce04	-0.1384812
7	0xbd98b0fb	-0.07455631
8	0x3d931a82	0.0718279
9	0x3d0fbdd5	0.035093147
10	0x3c09afc3	0.008403721
11	0x3c4d3ea0	0.012527138
12	0xbdbccea6	-0.092191026
13	0x3a530980	0.0008050427
14	0xba308ce0	-0.0006734859
15	0xbd0b1c8f	-0.033962782
16	0xbd17f36b	-0.037097376
17	0xbc8844a0	-0.016634285
18	0xbe26a775	-0.16274817
19	0xbd3dbe69	-0.046324167
20	0xbdef7c9b	-0.116936885
21	0xbcb07628	-0.021540716
22	0xbc45845b	-0.012055482
23	0xbc627c04	-0.013823513
24	0xbbae48c1	-0.0053187315
25	0xbdd502df	-0.10400938
26	0xbd97e979	-0.07417578
27	0xbde4287d	-0.11140535
28	0xbce322b2	-0.027726505
29	0x3b9a92e9	0.00471722
30	0xbd3fcec4	-0.046828046
31	0x3c876cbf	0.016531346
32	0xbdc58aad	-0.09645591
33	0xbd3a76c7	-0.04552343
34	0xbda1000e	-0.078613386
35	0xbdf0adf4	-0.11751929
36	0xbc6448b7	-0.013933352
37	0xbe3d76e2	-0.18502381
38	0xbe1eaed5	-0.1549638
39	0xbdb61182	-0.08890058
40	0xbc8d9470	-0.017282695
41	0xbe8be60d	-0.27323952
42	0xbd02c902	-0.031929977
43	0x3d0c2576	0.034215413
44	0xbd986699	-0.07441444
45	0xbd6518f7	-0.05593201
46	0x3ce8d7af	0.028423158
47	0xbd54d928	-0.05196491
48	0xbd364b10	-0.04450518
49	0xbcd7c8d9	-0.026340889
50	0x3d0cd548	0.03438309
51	0x3d5c2442	0.053745516
52	0xbd057308	-0.032580405
53	0xbd7fde4a	-0.06246785
54	0xbdbfccc7	-0.0936523
55	0xbd170cfe	-0.036877625
56	0xbdbf7b6d	-0.093497135
57	0xbda267e0	-0.07929969
58	0xbc23ee25	-0.010005509
59	0xbd913e64	-0.07091978
60	0xbe51f43a	-0.20503321
61	0xbe2eea41	-0.17081548
62	0xbe44c0e3	-0.19214205
63	0x3d26f286	0.040758632

27 f4 [3, 256]
0	0x3f908d02	1.1293032
1	0xbf0e3aab	-0.5555827
2	0xbf557503	-0.8338167
3	0x3f8857ad	1.0651757
4	0x3db978ac	0.090562195
5	0xbf08eaf1	-0.5348349
6	0xbe82d14b	-0.25550303
7	0xbf76d613	-0.964204
8	0xbf1c519f	-0.61062044
9	0x3f8f928e	1.12166
10	0x3ed8d9a1	0.42353538
11	0x3e85e4b4	0.2615105
12	0xbf1a8d07	-0.6037144
13	0x3f486411	0.7827769
14	0xbf4be69a	-0.79648745
15	0x3f25d09c	0.6477144
16	0xbee8c3b9	-0.45461825
17	0x3f2271b9	0.63454777
18	0x3e356615	0.17714722
19	0xbd3628f6	-0.044472657
20	0xbe8553bb	-0.26040444
21	0x3f6632fd	0.8992155
22	0xbf29e4c9	-0.66364723
23	0x3f5778a4	0.8416846
24	0xbf75bec5	-0.95994216
25	0x3f034cf4	0.51289296
26	0xbf8c25a7	-1.094899
27	0x3f448f33	0.76781005
28	0xbf603fab	-0.8759715
29	0x3f1d481a	0.61438143
30	0x3f396a09	0.7242742
31	0x3f6dfb99	0.9296203
32	0xbf82baa9	-1.0213214
33	0xbe18f314	-0.14936477
34	0xbf40b79a	-0.75280154
35	0xbf5a2d8b	-0.85225743
36	0x3ed906bc	0.4238795
37	0xbf5f72cd	-0.8728455
38	0xbf8d7c66	-1.1053588
39	0xbdd621e5	-0.104556836
40	0xbf4cab24	-0.7994864
41	0xbeb3639f	-0.35036942
42	0xbcdb6569	-0.026781755
43	0xbf6d75d7	-0.92757934
44	0xbf233c5f	-0.63763994
45	0x3f12de6a	0.57370627
46	0xbf89e8aa	-1.0774128
47	0xbe648d47	-0.22319518
48	0x3f758bb7	0.9591631
49	0x3e0ef630	0.139611
50	0xbf55552d	-0.8333309
51	0x3f5e16f0	0.8675375
52	0xbf421e52	-0.75827515
53	0x3d8a14ea	0.0674227
54	0xbd0fbfca	-0.035095014
55	0x3e863862	0.26214892
56	0x3dc19efa	0.094541505
57	0xbf86a83d	-1.0520092
58	0x3f2469f7	0.6422419
59	0x3f466386	0.7749561
60	0xbf0adb07	-0.5424046
61	0x3f06b1a3	0.526148
62	0xbd1658d7	-0.036705818
63	0x3f489e8a	0.7836691
64	0xbf40da57	-0.7533316
65	0x3edb0f08	0.42784905
66	0xbe9d3ba1	-0.30709556
67	0xbf390476	-0.7227243
68	0xbf84a25f	-1.0362052
69	0x3f510eea	0.8166338
70	0xbf34d674	-0.7063973
71	0x3eef1c56	0.46701306
72	0xbef857ae	-0.48504394
73	0xbedb55d4	-0.4283892
74	0x3f6178ed	0.88075143
75	0xbf6c3b54	-0.9227803
76	0x3f83afeb	1.0288061
77	0x3f722826	0.9459251
78	0xbf6e4ef4	-0.9308922
79	0x3ef48c82	0.4776345
80	0xbf808426	-1.0040329
81	0xbf76a168	-0.96340036
82	0x3f32d93c	0.69862723
83	0xbed2deb6	-0.4118554
84	0xbf996652	-1.1984351
85	0x3f708456	0.9395193
86	0xbf584a8e	-0.8448876
87	0x3edd5ddd	0.43235675
88	0xbcca3d7d	-0.024687523
89	0x3f45d4a2	0.77277577
90	0x3f732a50	0.9498644
91	0xbf7d6bfc	-0.98992896
92	0xbf97cc85	-1.185929
93	0x3dc08de0	0.094020605
94	0xbe8cc072	-0.27490574
95	0x3f80a185	1.0049292
96	0xbf25c62e	-0.64755523
97	0x3eff69b3	0.4988533
98	0xbf0c2730	-0.54747295
99	0xbeb6089e	-0.3555345
100	0xbf0bf058	-0.5466361
101	0xbea91195	-0.33021227
102	0x3ed2d98c	0.411816
103	0xbf7beb5e	-0.98406017
104	0x3f3cc686	0.7374042
105	0xbe82c533	-0.25541076
106	0xbedfe5a4	-0.4372989
107	0xbf5c60dc	-0.86085296
108	0xbf906fb5	-1.128409
109	0x3f52374a	0.82115614
110	0xbf6fca65	-0.93668205
111	0xbf0a8385	-0.5410693
112	0x3c86f310	0.016473323
113	0xbf395dca	-0.72408736
114	0xbf2158e6	-0.63026273
115	0xbf6b044f	-0.9180345
116	0x3f5048a7	0.8136086
117	0xbf7d8fa1	-0.99047285
118	0x3d1752ae	0.036944084
119	0xbeeaa3ff	-0.45828244
120	0xbe6b9eab	-0.23009746
121	0x3e67b95f	0.22629307
122	0xbe53a634	-0.2066887
123	0xbf833921	-1.0251809
124	0xbf18f3b3	-0.59746855
125	0x3f8513d6	1.0396678
126	0xbf7469be	-0.9547385
127	0x3e862966	0.2620346
128	0xbea2775e	-0.31731695
129	0x3cdf1c79	0.027235257
130	0x3f3d0c31	0.7384673
131	0xbf82c139	-1.0215217
132	0xbf27a702	-0.6548921
133	0x3d3cee44	0.046125665
134	0xbf809920	-1.004673
135	0xbf7716d0	-0.96519184
136	0xbef56646	-0.4792959
137	0x3f3f0403	0.74615496
138	0x3f11c9df	0.56948656
139	0x3b6e2fe3	0.003634446
140	0x3f4bd2cd	0.7961853
141	0xbee2a035	-0.44262853
142	0x3ec25633	0.3795639
143	0xbf218896	-0.6309904
144	0x3f6f7097	0.93531173
145	0xbef1b777	-0.47210285
146	0x3f877ac9	1.0584346
147	0x3f7db88f	0.9910974
148	0x3f67b123	0.90504664
149	0x3e0b7c43	0.13621621
150	0x3f0c8667	0.5489258
151	0x3d9c252e	0.07624279
152	0xbf64a783	-0.893181
153	0x3f20d964	0.6283171
154	0xbf5f2153	-0.87160224
155	0x3f8df15b	1.1089281
156	0x3f657067	0.8962464
157	0xbf3c3aef	-0.73527426
158	0xbf72322f	-0.94607824
159	0x3f44abe8	0.7682481
160	0x3e9e56b8	0.30925536
161	0x3f74366a	0.9539553
162	0x3f93099c	1.1487308
163	0x3f0530d9	0.5202766
164	0x3ed80a31	0.42195275
165	0xbf2253fa	-0.6340939
166	0xbef60c09	-0.48056057
167	0x3f6851a9	0.90749604
168	0xbf67489a	-0.90345156
169	0x3e3f7e40	0.18700504
170	0xbf77e183	-0.9682848
171	0x3f666e4c	0.9001205
172	0xbde70e5d	-0.112820365
173	0x3e1800c3	0.1484404
174	0xbf8a7140	-1.0815811
175	0x3f22923a	0.63504374
176	0xbf143710	-0.5789652
177	0x3f43a94f	0.7643022
178	0x3c8be07f	0.017074822
179	0xbf7a0957	-0.976705
180	0x3ecc5c6f	0.3991427
181	0x3f7e1c98	0.9926238
182	0xbe63077a	-0.22170821
183	0xbe6d1397	-0.23152004
184	0xbf4ceb37	-0.8004641
185	0x3f4f2cd5	0.80927783
186	0x3f75367f	0.9578628
187	0xbf685028	-0.9074731
188	0xbf2ad3d1	-0.66729456
189	0xbf4ac880	-0.7921219
190	0x3f09665f	0.5367183
191	0xbeb49dd0	-0.3527665
192	0xbf0124c8	-0.5044675
193	0x3f513de9	0.8173509
194	0x3f1be1f0	0.6089163
195	0x3ea49794	0.32146895
196	0x3f7d4a27	0.9894127
197	0xbf53d498	-0.8274627
198	0xbf78da38	-0.97207975
199	0xbec0829a	-0.3759964
200	0xbf30e80a	-0.69104064
201	0xbf4fbd4e	-0.8114823
202	0x3f8b2046	1.0869224
203	0xbf80f2d8	-1.007411
204	0xbe2e94ed	-0.17048998
205	0xbefd1762	-0.49431902
206	0xbead7261	-0.33876327
207	0xbe3d9277	-0.18512903
208	0x3f0576d2	0.5213443
209	0xbf2997c7	-0.6624722
210	0x3f6a6a36	0.91568315
211	0xbf87bfc2	-1.0605395
212	0xbf259991	-0.6468745
213	0x3f72cdfa	0.94845545
214	0xbf47982e	-0.7796658
215	0x3e431ea7	0.19054662
216	0xbf11047c	-0.5664747
217	0x3ed6186a	0.418155
218	0xbf0d56d5	-0.5521062
219	0xbf2a20eb	-0.6645648
220	0x3f49edee	0.78878677
221	0x3f650262	0.8945676
222	0xbf72f933	-0.949115
223	0x3f88c1bc	1.0684123
224	0x3f6510d9	0.8947883
225	0xbf79507e	-0.97388446
226	0x3e30fb0a	0.17283264
227	0xbe356477	-0.17714106
228	0xbf53c7ba	-0.82726634
229	0x3ee28bc0	0.44247246
230	0x3f93db38	1.1551275
231	0x3f70c915	0.94056827
232	0x3f829c9b	1.0204042
233	0xbf37b75c	-0.7176416
234	0xbf754124	-0.9580252
235	0xbf6ca0cf	-0.92432874
236	0x3f354d27	0.7082085
237	0x3f8631b5	1.0483919
238	0xbf7ba626	-0.983004
239	0xbe7349e4	-0.23758656
240	0x3f5d194d	0.8636673
241	0x3ee9e1f8	0.45680213
242	0xbf524311	-0.82133585
243	0xbf8d3a56	-1.1033428
244	0x3f583678	0.8445811
245	0x3f6876a2	0.9080602
246	0xbcd3c348	-0.025849953
247	0xbf3df22e	-0.7419766
248	0xbf20f6e9	-0.62876755
249	0x3f241bf6	0.64105165
250	0x3e569ece	0.20959017
251	0x3e9e9230	0.30970907
252	0x3f7871ae	0.9704846
253	0xbf07f600	-0.5310974
254	0x3f2881b6	0.65822923
255	0xbf749a7e	-0.95548236

28 f4 [256, 128]
0	0x3d8cc34c	0.068731874
1	0xbe26e5f8	-0.16298664
2	0xbcb25bbf	-0.021772264
3	0xbdbc1653	-0.091839455
4	0x3d5f2187	0.054475334
5	0x3d037ef3	0.03210349
6	0x3e40a6b5	0.18813594
7	0x3edebfbb	0.43505654
8	0xbc5bdb87	-0.013419039
9	0xbe0e9d35	-0.13927157
10	0xbdc7e67a	-0.09760757
11	0x3e45e46b	0.19325416
12	0x3eb99db1	0.36253121
13	0x3cef0a5c	0.029179744
14	0xbe41e094	-0.18933326
15	0xbaa2f027	-0.001243119
16	0x3d0cc945	0.034371633
17	0x3ed08889	0.40729168
18	0x3eac9201	0.33705142
19	0x3e0002af	0.12501024
20	0xbe0ebfd9	-0.13940372
21	0xbd9cc2d2	-0.076543465
22	0xbcc5d32f	-0.024148552
23	0x3e9de015	0.30835024
24	0xbd5b33c7	-0.053516176
25	0xbe9d552a	-0.30729038
26	0x3d02f701	0.031973843
27	0x3d8de64f	0.069286935
28	0xbb08a39e	-0.0020849477
29	0x3d8d5310	0.069006085
30	0xbc04b45a	-0.00809964
31	0x3d3a964a	0.045553483
32	0xbd68a766	-0.05680027
33	0x3da6628b	0.08124264
34	0xbe1c5869	-0.15268101
35	0xbd4d8b08	-0.05018142
36	0xbdc3b064	-0.09555128
37	0x3d8c5f64	0.06854132
38	0xbdac4930	-0.08412397
39	0x3d6b2bf0	0.05741495
40	0x3e9bc8a2	0.30426508
41	0x3e85c8ac	0.26129663
42	0xbde0d745	-0.109785594
43	0x3ca75893	0.020427978
44	0x3d65ccf0	0.056103647
45	0xbcd02574	-0.025408484
46	0xbc6dd3b9	-0.014515811
47	0x3df35cb7	0.11882918
48	0xbda5348a	-0.08066662
49	0x3c35f186	0.011104947
50	0xbd56e9a0	-0.052468896
51	0x3e8e8e58	0.27842975
52	0x3d22c431	0.039737884
53	0xbd955361	-0.07291294
54	0x3dc2059c	0.09473726
55	0xbe4950d5	-0.19659741
56	0x3e138013	0.14404325
57	0xbdb590f6	-0.0886554
58	0x3e1e5c5e	0.15464923
59	0xbe5f754e	-0.21822092
60	0x3e9baf19	0.30407026
61	0xbd2314fb	-0.03981493
62	0x3ea4d972	0.32197148
63	0xbd1fee7f	-0.039045807
64	0xbd8d6074	-0.069031626
65	0x3ebf8480	0.37405777
66	0x3da3ac85	0.0799189
67	0xbdc89c3f	-0.097954266
68	0xbc7d6048	-0.01546485
69	0x3e847276	0.25868577
70	0x3dd05c34	0.10173836
71	0xbdd4f47b	-0.103981934
72	0xbd1634fc	-0.036671624
73	0x3da470d0	0.0802933
74	0xbd7eee77	-0.062239137
75	0xbda507b6	-0.08058111
76	0x3e087aa0	0.13328028
77	0x3ee2335e	0.44179815
78	0x3ec930b7	0.3929498
79	0xbd8a7e0b	-0.06762322
80	0x3cf1ad22	0.029501501
81	0x3ccd341f	0.025049267
82	0x3ea16275	0.3152043
83	0xbe29cc84	-0.16581923
84	0xbda7e6fb	-0.08198353
85	0x3f09a2ef	0.5376424
86	0x3d1c0ca0	0.038097978
87	0x3de56b92	0.11202158
88	0xbdc3a689	-0.095532484
89	0x3c8d7eeb	0.017272433
90	0x3dd9ef94	0.10641399
91	0xbe03d507	-0.12874232
92	0xbc831020	-0.0159989
93	0xbdf80f44	-0.12112287
94	0xbe7942e0	-0.24341917
95	0x3e06c3d7	0.13160644
96	0xbdd62930	-0.10457075
97	0x3e00750c	0.1254465
98	0xbdd3c4e0	-0.10340285
99	0xbe07fee4	-0.13280827
100	0xbe39ccd4	-0.18144542
101	0x3d24d8a6	0.040245675
102	0xbe4d37ce	-0.20040819
103	0xbd989ad0	-0.07451403
104	0x3db40a39	0.08791012
105	0xbdc9d934	-0.09855881
106	0x3e21bdee	0.15795109
107	0xbc37ca2c	-0.011217635
108	0xbd8f1b08	-0.06987578
109	0xba99f8df	-0.0011747143
110	0xbe984acb	-0.29744563
111	0xbe8c469f	-0.2739763
112	0xbbafcad7	-0.0053647566
113	0x3e876f4d	0.26452103
114	0x3c8a937e	0.016916033
115	0xbcbf2eb1	-0.023337694
116	0x3d5f47c5	0.054511804
117	0xbd1c6f87	-0.0381923
118	0xbd802165	-0.062563695
119	0xbd76a100	-0.060212135
120	0x3e41ef52	0.1893895
121	0x3dac6e26	0.08419447
122	0xbe46e9d6	-0.19425139
123	0x3db61914	0.08891502
124	0x3c0bd375	0.008534302
125	0xbd6d25f1	-0.057897512
126	0x3d885a55	0.066578545
127	0xbc5b08b1	-0.013368771
128	0x3c077019	0.008266472
129	0xbc34ee6c	-0.011043172
130	0xbc300bfb	-0.010745044
131	0xbdb79699	-0.08964271
132	0x3cbc8116	0.023010772
133	0x3cbda611	0.023150476
134	0xbc19adfe	-0.009379862
135	0xbc70d9b0	-0.014700338
136	0x3bebc875	0.007195527
137	0xbce8897b	-0.028385868
138	0x3cd89ce5	0.026442
139	0xbd8bf7f5	-0.068344034
140	0xbd51f5a6	-0.05125966
141	0x3d1c560a	0.03816799
142	0xba098147	-0.0005245399
143	0xbd778856	-0.060432754
144	0x3d0b9424	0.034076825
145	0x3bd96185	0.0066339397
146	0xbd0ff59a	-0.035146333
147	0x3ccfabdd	0.025350505
148	0xbc8f8d14	-0.017523326
149	0x3d03b313	0.0321532
150	0x3c92ad7e	0.017904993
151	0xbc38e0fd	-0.01128411
152	0xbd2dc489	-0.04242376
153	0x3e1cc973	0.15311222
154	0x3d09716b	0.03355543
155	0xbc77371a	-0.015088821
156	0xbd083628	-0.033254772
157	0xbd048cf9	-0.032361005
158	0x3ca27f54	0.019836105
159	0xbc9f06e2	-0.019412462
160	0x3ccbb6b5	0.024867395
161	0x3d6f9296	0.058489405
162	0x3d0cb0a7	0.034348156
163	0x3bfc4bf4	0.007699484
164	0xbbd7173f	-0.0065640504
165	0x3d68901b	0.056778055
166	0xbd16f935	-0.036858756
167	0xbd34d1f2	-0.044145532
168	0xbda26218	-0.07928866
169	0xba7662fe	-0.0009398906
170	0x3c9a82ba	0.018861163
171	0x3cc00acf	0.023442654
172	0xbdad1dac	-0.08452925
173	0x3c7966c7	0.015222258
174	0xbd7b1044	-0.06129481
175	0x3dab5837	0.08366435
176	0x3c914550	0.017733246
177	0xbd156e72	-0.036482282
178	0x3c374e82	0.011188151
179	0xbd4dbd79	-0.050229523
180	0xbba53df3	-0.0050427853
181	0xbca21d51	-0.01978937
182	0xbc84ca3a	-0.01620971
183	0x3c4281a5	0.01187173
184	0xbc7b2bb2	-0.015330242
185	0xbc6c4ebe	-0.0144230705
186	0x3b912563	0.0044295057
187	0x3d5b62d8	0.05356106
188	0xbd7c0d95	-0.06153639
189	0x3d0ce30d	0.03439622
190	0xbdd96a73	-0.10616007
191	0xbd82a871	-0.06379784
192	0xbd220cb0	-0.03956288
193	0xbc98d8db	-0.018658092
194	0xbcf60044	-0.030029424
195	0x3e034bb1	0.12821843
196	0xbb205500	-0.0024464726
197	0x3c4697c1	0.012121142
198	0xbd74f4e0	-0.059803843
199	0x3d21e398	0.03952369
200	0x3caa6e04	0.020804413
201	0xbd9457ab	-0.07243284
202	0xbd2e477a	-0.042548634
203	0xbd00544a	-0.031330384
204	0x3bd2fd40	0.006438881
205	0xbd3f1e85	-0.046659965
206	0xbcfbc91b	-0.030735543
207	0xbc5ce7c7	-0.013482994
208	0xbcf55e06	-0.02995206
209	0xbd42661f	-0.04746067
210	0xbd4ba128	-0.049714237
211	0xbd6b2f2e	-0.05741804
212	0x3d0d029d	0.03442632
213	0xbcfc09b8	-0.030766353
214	0xbcae3167	-0.021263791
215	0x3d4293db	0.047504287
216	0x3cd4e460	0.025987804
217	0x3b60de00	0.003431201
218	0xbc88d5a6	-0.016703438
219	0xbd26926b	-0.04066698
220	0x3c0c3ee0	0.008559912
221	0x3cce668a	0.025195379
222	0xbd1b5e47	-0.037931707
223	0xbc1eb230	-0.009686038
224	0xbd5c59df	-0.053796645
225	0x3b98c148	0.004661713
226	0xbd82899d	-0.06373904
227	0xbc8ed0bf	-0.017433522
228	0xbd63ea26	-0.055643223
229	0x3cf3fac3	0.029782658
230	0xbd40c4ba	-0.047062613
231	0x3d86a61a	0.0657465
232	0xbd8f7b17	-0.070058994
233	0x3ca3326c	0.019921504
234	0x3c52c75f	0.012864917
235	0xbd8e4796	-0.06947248
236	0xbc88a7b6	-0.016681533
237	0x3d2880cc	0.041138455
238	0x3b1caf4b	0.0023908194
239	0x3d7d6eff	0.061873432
240	0xbd87e369	-0.06635172
241	0xbd8f7a54	-0.07005754
242	0x3d019166	0.031632803
243	0x3b01091f	0.0019689274
244	0x3d5b297d	0.053506363
245	0x3b8d9435	0.004320646
246	0x3d8e46f1	0.06947125
247	0xbd4f3baf	-0.050594028
248	0x3bd06c33	0.0063605546
249	0x3d10bcb4	0.03533621
250	0xbd453d3a	-0.048154093
251	0xbd3d8464	-0.046268836
252	0xbd050d1c	-0.032483205
253	0xbc95eb9b	-0.018300822
254	0xbba9d43e	-0.005182772
255	0xbd91fc79	-0.071282335

29 f4 [128, 64]
0	0x3c9db72a	0.019252378
1	0x3d9dfeff	0.07714652
2	0xbd62cec1	-0.055372957
3	0x3dde7b05	0.10863308
4	0xbc3620ee	-0.0111162495
5	0xbd7c8c34	-0.061657146
6	0x3db11b96	0.0864784
7	0xbd41975a	-0.04726348
8	0x3d924d38	0.071436346
9	0x3de8b4a5	0.1136258
10	0xbb277de8	-0.0025557224
11	0x3d88b3b2	0.06674899
12	0xbdce288f	-0.1006633
13	0xbdb12b7e	-0.086508736
14	0xbd32c53e	-0.043645136
15	0xbd9a0772	-0.07520951
16	0x3cd56198	0.026047513
17	0xbd767c78	-0.060177296
18	0x3da10b01	0.07863427
19	0xbd8ee3ba	-0.06977029
20	0xbdc3c654	-0.095593125
21	0x3d5b4ca7	0.0535399
22	0xbdd80f44	-0.10549787
23	0xbd64fc62	-0.055904754
24	0x3ddf0658	0.10889882
25	0x3b7134b7	0.0036805102
26	0xbd43855b	-0.0477346
27	0x3ba03f1a	0.004890335
28	0x3be2675a	0.006909293
29	0xbd330d8d	-0.043714095
30	0x3d9a70a9	0.075410195
31	0x3dbad77a	0.0912313
32	0x3d7f3e83	0.062315475
33	0x3e180704	0.14846426
34	0xbd075dad	-0.03304832
35	0x3b8e024e	0.004333771
36	0xbc60f5df	-0.013730495
37	0xbd47e20b	-0.048799556
38	0xbd4d77e6	-0.050163172
39	0xbd128c16	-0.035778128
40	0xbc794d90	-0.015216246
41	0xbc97e84a	-0.018543381
42	0x3d4bb375	0.04973169
43	0xbd822a8c	-0.063557714
44	0xbc78f866	-0.015195942
45	0xbe276176	-0.16345772
46	0xbc0c639e	-0.008568672
47	0xbd096014	-0.033538893
48	0xbd676058	-0.056488365
49	0x3e212c87	0.15739642
50	0x3a68ec77	0.00088853337
51	0xbd25d61c	-0.040487394
52	0x3cc79154	0.02436129
53	0x3cb84703	0.022494799
54	0xbc27d6c1	-0.010244072
55	0x3c9aef3a	0.0189129
56	0x3d3e49a6	0.046456955
57	0x3c931b04	0.017957218
58	0x3d317561	0.043324832
59	0xbcf7b321	-0.030236783
60	0x3c736fa9	0.014858165
61	0xba94af9d	-0.0011343841
62	0x3da656fe	0.08122061
63	0x3d312ba3	0.043254506
64	0xbc8322b4	-0.016007759
65	0x3c5d9065	0.013523196
66	0x3d845183	0.064608596
67	0xbdd5b664	-0.10435179
68	0xbcfc991f	-0.030834733
69	0xbbdd8bf9	-0.006761071
70	0xbc821308	-0.015878215
71	0xbd59be97	-0.053160276
72	0xbc1998f8	-0.0093748495
73	0x3dabdf45	0.08392195
74	0xbc4d9f4a	-0.0125501845
75	0xbd8ed9b0	-0.06975114
76	0x3d123d57	0.03570303
77	0x3dd5775a	0.10423155
78	0xbd802d2a	-0.06258614
79	0xbd9c5862	-0.07634045
80	0xbd63a219	-0.05557451
81	0xbd25aa85	-0.040445823
82	0xbcc132ff	-0.023583887
83	0xbd83fb9e	-0.064444765
84	0x3d1e55f7	0.0386562
85	0xbe03f867	-0.12887727
86	0xbc7c6c74	-0.015406717
87	0x3d7e8557	0.06213888
88	0xb99f6ae2	-0.00030406477
89	0x3de7b3ee	0.11313616
90	0x3cda2d34	0.026632883
91	0x3dc51fd8	0.09625214
92	0xbb4bc548	-0.003109293
93	0x3c274d3c	0.010211285
94	0xbcda924c	-0.026681088
95	0x3dc11674	0.09428111
96	0x3d729819	0.059227083
97	0x3e05a08d	0.13049527
98	0xbb7cbdc3	-0.0038565255
99	0x3d87486b	0.066056095
100	0xbdaa5e90	-0.083188176
101	0xbe1407c9	-0.14456095
102	0x3e373f81	0.17895319
103	0x3c51a260	0.012795061
104	0x3b6410d1	0.0034800062
105	0xbd2aea7d	-0.04172753
106	0x3b47b925	0.0030475345
107	0x3d9ef259	0.07761068
108	0xbd605a2e	-0.054773502
109	0xbcdc9eae	-0.026931133
110	0x3ca39e4f	0.019972948
111	0x3da3535f	0.07974886
112	0x3d71225e	0.058870666
113	0x3d1f5dab	0.038907688
114	0xbbce0b6e	-0.0062879836
115	0x3cb5b3d5	0.022180477
116	0xbb8173cb	-0.003950571
117	0xbdcd6104	-0.1002827
118	0xbc460865	-0.012086962
119	0x3b837fff	0.004013061
120	0x3cc3dddf	0.023909507
121	0xbd1956ad	-0.037436176
122	0xbd6cf7b2	-0.05785341
123	0x3c1ffb60	0.009764522
124	0xbd9082a3	-0.07056167
125	0xbd47cf9d	-0.04878198
126	0xbd837dfb	-0.06420513
127	0xbc83d77f	-0.016093967
128	0x3d81442a	0.063118294
129	0xbde9d165	-0.11416892
130	0x3cef6184	0.029221304
131	0x3b9d300e	0.0047969883
132	0xbd80065a	-0.062512115
133	0xbdd22126	-0.10260229
134	0xbd558b50	-0.052134812
135	0xbcbb909d	-0.022896105
136	0x3d43d6c7	0.04781225
137	0xbc399b20	-0.011328489
138	0x39c6d098	0.00037920917
139	0x3df738b0	0.12071359
140	0xbd5efd56	-0.05444082
141	0x3d170795	0.036872465
142	0x3d195f51	0.037444416
143	0x3d2d87fc	0.042366013
144	0xbe067fde	-0.13134715
145	0x3d9f4bef	0.07778155
146	0x3de8036f	0.1132878
147	0x3d1ef939	0.038811896
148	0x3dea5644	0.11442235
149	0xbd5b7904	-0.053582206
150	0x3ba841f5	0.005134816
151	0xbb165287	-0.0022937374
152	0xbd0c54a9	-0.034260426
153	0x3dd564db	0.10419627
154	0x3d3e6eb9	0.046492312
155	0xbc287040	-0.010280669
156	0xbc285151	-0.010273294
157	0x3c379792	0.011205571
158	0xbccd21b5	-0.025040487
159	0x3bab64e9	0.0052305353
160	0x3bcf1d31	0.0063206186
161	0x3d5db422	0.054126866
162	0xbd7527d5	-0.05985244
163	0xbd138cef	-0.036023077
164	0x3da5c3cc	0.08093986
165	0xbd587e7e	-0.052855007
166	0x3d80efe5	0.06295756
167	0xbd69f85b	-0.057121616
168	0x3d6fe48b	0.058567565
169	0xbd87f7a3	-0.0663903
170	0x3d67ce0d	0.05659299
171	0x3d8409a4	0.06447151
172	0xbd21a56d	-0.039464403
173	0xbd79bb6d	-0.06096976
174	0xbc8f23ce	-0.017473128
175	0xbd17a311	-0.037020747
176	0xbd4a869e	-0.049444787
177	0xbd1153a7	-0.035480168
178	0x3d55559a	0.05208359
179	0xbd19f606	-0.03758814
180	0x3d378b7f	0.04481077
181	0x3c0a8274	0.008453954
182	0xbdd9be31	-0.10631979
183	0x3c856a15	0.016285935
184	0xbc15b9e1	-0.009138555
185	0xbbaeae0d	-0.005330807
186	0xbc307c61	-0.010771842
187	0x3c7c0aa1	0.0153833935
188	0xbc8eee2d	-0.017447555
189	0xbd544e33	-0.05183239
190	0x3d9bce84	0.07607749
191	0x3d707cbc	0.058712706
192	0xbc8a764e	-0.016902115
193	0x3d144a6d	0.03620379
194	0x3ce0a063	0.027420228
195	0xbcb1ee13	-0.021719968
196	0x3db960b0	0.09051645
197	0xbe0bab73	-0.13639621
198	0x3d2f4cc0	0.042797804
199	0x3d9e31a3	0.07724311
200	0x3c7bb9e9	0.015364149
201	0x3da76c0b	0.081749044
202	0xb88cb9f7	-6.710359e-05
203	0xbd9fab5c	-0.07796356
204	0xbd290c21	-0.041271333
205	0x3d32dea5	0.04366936
206	0xbc70a95f	-0.014688819
207	0xbd174cc3	-0.03693844
208	0x3bd7c140	0.0065843165
209	0xbdd656d8	-0.10465783
210	0x3d24b388	0.040210277
211	0xbde0e7e8	-0.109817326
212	0x3d7bc2d7	0.06146511
213	0xbe23195c	-0.15927643
214	0x3cc22bd0	0.023702532
215	0xbba7d76c	-0.005122116
216	0xbd5ace34	-0.053419307
217	0x3db5567d	0.08854387
218	0xbd810a39	-0.06300778
219	0x3d29c37c	0.041446194
220	0x3e0f8483	0.14015393
221	0xbd9e7e1d	-0.07738898
222	0xbe347880	-0.17624092
223	0x3d856d76	0.06515019
224	0xbaec541d	-0.0018030439
225	0x3e53ae99	0.20672072
226	0xbc210d61	-0.00982985
227	0xbdd10730	-0.10206449
228	0xbd86da80	-0.06584644
229	0xbd80f4e4	-0.06296709
230	0x3e09df66	0.13464126
231	0x3ba6afa1	0.0050868546
232	0xbd7000f2	-0.05859465
233	0x3c971b04	0.0184455
234	0xbc23e34b	-0.010002921
235	0xbdb00ffc	-0.08596799
236	0x3dc90b5a	0.09816618
237	0xbd347e5a	-0.04406581
238	0x3e28e753	0.16494493
239	0x3b45e38c	0.0030195443
240	0xbd6f87b3	-0.058479022
241	0xbd6e41b1	-0.058168117
242	0x3d110ad4	0.035410717
243	0x3cc79dad	0.024367178
244	0xbd183125	-0.037156243
245	0x3c71622d	0.01473288
246	0x3e53ed3a	0.20695964
247	0xbc9fa5f7	-0.019488318
248	0x3d4c1d16	0.049832426
249	0xbd69ec22	-0.05710996
250	0x3c93bb5a	0.018033672
251	0x3d434415	0.04767235
252	0xbe0d7dc9	-0.13817514
253	0x3dc1310a	0.094331816
254	0x3e5efb0b	0.21775453
255	0x3c1525b9	0.009103232

30 f4 [64, 1]
0	0xba3682f0	-0.000696226
1	0x3ac35ce7	0.0014905006
2	0x3b08ed58	0.002089342
3	0x3ac12702	0.0014736357
4	0xbb4b940b	-0.0031063582
5	0x3b9a4f1d	0.004709138
6	0x3c1c052b	0.0095227165
7	0xbb4de8d9	-0.0031419306
8	0xbae06a01	-0.0017121435
9	0xba3550bb	-0.0006916632
10	0xb9972333	-0.0002882719
11	0x3a9c17ad	0.0011908911
12	0xba42a92f	-0.0007425723
13	0x3887e84c	6.48057e-05
14	0x3979499d	0.00023773914
15	0xba18b968	-0.00058259675
16	0x3ae984eb	0.0017816102
17	0xba75c2c8	-0.0009375033
18	0x3c290827	0.010316885
19	0x3c28291a	0.010263706
20	0xbbe6abb3	-0.007039511
21	0xba5765fb	-0.00082167954
22	0xb9d0a928	-0.00039798883
23	0x3b05ab97	0.0020396465
24	0xbb167337	-0.0022956857
25	0x3b0bcc15	0.002133136
26	0xb7c55fa6	-2.352877e-05
27	0xbaf3cf32	-0.0018601178
28	0xba9794aa	-0.0011564691
29	0x3d21cf0f	0.039504107
30	0x3bb96625	0.0056579285
31	0x3b7dab57	0.0038706863
32	0xbad957f8	-0.0016582003
33	0xbb95bc74	-0.0045695845
34	0xbb1dd9dd	-0.0024086155
35	0x39652ba8	0.00021855405
36	0xba263288	-0.0006339927
37	0xbb809169	-0.0039235842
38	0xbc4365c0	-0.011926115
39	0x39ded06c	0.00042498426
40	0x3abfe229	0.0014639545
41	0xb9c6b895	-0.00037903027
42	0xba192e35	-0.0005843372
43	0x3c9d00b7	0.01916538
44	0x3d58c8f5	0.052926023
45	0x3a298e58	0.0006468049
46	0x3ca2caea	0.019872148
47	0xbade19cc	-0.0016944944
48	0xba1115f3	-0.0005534582
49	0xb9f1d6f2	-0.0004612725
50	0xbae4809f	-0.0017433352
51	0x3b277a6f	0.0025555154
52	0x3a43cddc	0.0007469335
53	0xb8910e65	-6.91682e-05
54	0xbca6f954	-0.02038256
55	0xba29f2b0	-0.00064830016
56	0x3c6547ec	0.013994198
57	0x3ac5e46c	0.0015097982
58	0x3a0153f2	0.00049334683
59	0xba2ed87a	-0.0006669831
60	0xbd8fa915	-0.07014672
61	0x3adbee7d	0.0016779449
62	0xbccb0027	-0.024780346
63	0x3bebecf5	0.0071998783
