workspace/cfg/Twip.pth.onnx (onnx, 5331 bytes, 5 tensors)

model.a2c_network.actor_mlp.0.bias f4 [32]
0.008113521 0.015383945 -0.0016198531 0.010123047 -0.009962845 -0.009345581 -0.00772293 -0.011180682
0.0072725536 0.016760848 0.011921681 0.010204573 -0.0030868067 0.017167248 -0.0111225555 -0.020624196
-0.003700872 0.011983406 -0.013931983 -0.010428253 -0.02043959 -0.0060205394 0.01659978 0.004322762
0.013381831 -0.0025268442 -0.0072134244 -0.015727988 -0.023075461 0.025942275 -0.0028723434 -0.0035133257
00000000: 93ee 043c f10c 7c3c 4051 d4ba 23db 253c
00000010: 333b 23bc 351e 19bc a210 fdbb 2e2f 37bc
00000020: 9a4e ee3b 0c4e 893c 2853 433c 1531 273c
00000030: 064c 4abb 54a2 8c3c 613b 36bc 13f4 a8bc
00000040: 548a 72bb 0c56 443c f942 64bc 43db 2abc
00000050: ed70 a7bc f247 c5bb 43fc 873c f5a5 8d3b
00000060: 783f 5b3c 6999 25bb 975e ecbb fbd7 80bc
00000070: c008 bdbc e584 d43c ed3d 3cbb d33f 66bb

model.a2c_network.actor_mlp.2.bias f4 [32]
-0.028333409 0.05943471 0.08525336 -0.014804796 -0.038708158 -0.0028129297 0.11465773 0.015566589
-0.22104599 0.05144968 -0.3217569 0.041333865 -0.049444642 0.0448279 0.021605982 0.019393496
0.45179978 -0.17285146 0.020590788 0.44031838 -0.027234621 -0.0131465765 -0.00029154698 -0.93776006
0.08492135 -0.009442089 -0.14936878 0.034497518 -0.06536944 -0.045371093 0.16158713 -0.04804669
00000000: 771b e8bc cf71 733d 5099 ae3d d18f 72bc
00000010: 728c 1ebd 2159 38bb acd1 ea3d 020b 7f3c
00000020: e159 62be e6bc 523d 52bd a4be b34d 293d
00000030: 7786 4abd 769d 373d 07ff b03c 1cdf 9e3c
00000040: 4d52 e73e f9ff 30be 03ae a83c 6971 e13e
00000050: 241b dfbc bd64 57bc c6da 98b9 0b11 70bf
00000060: 3feb ad3d feb2 1abc 21f4 18be 454d 0d3d
00000070: 6ae0 85bd 0ad7 39bd 1977 253e 9bcc 44bd

21 f4 [2, 32]
-1.719654 -1.1414187 -1.3929054 -0.8535379 1.9092833 1.896729 1.3502828 1.969012
-1.488716 -1.8909972 -1.3517609 -1.7592525 1.5478008 0.426919 2.0721054 2.039756
-1.2367218 0.58837163 1.7881317 -0.11106081 1.698469 1.6273012 0.82855546 1.5107936
-2.0024025 -0.06377559 1.5814668 1.6053811 2.2893639 -0.43900132 1.0836918 0.2921273
0.2998134 -0.052390788 0.13036346 -0.23568697 0.0532554 0.0456157 0.055519626 0.038156334
0.02031276 -0.024539543 0.046955675 -0.14929053 -0.054900307 -0.14450438 -0.3742744 0.040630326
0.19540004 0.07558268 -0.0006869421 -0.07789827 0.36127263 -0.113969326 -0.0023670688 -0.23594584
-0.18794689 0.17978856 0.14906742 0.01844979 -0.17494786 -0.31830883 0.008505223 0.056622896
00000000: 9f1d dcbf 021a 92bf b94a b2bf 7681 5abf
00000010: 6563 f43f 04c8 f23f 11d6 ac3f 9608 fc3f
00000020: 3f8e bebf 320c f2bf 8006 adbf 302f e1bf
00000030: 561e c63f 2195 da3e 609d 0440 5d8b 0240
00000040: e64c 9ebf 869f 163f 80e1 e43f da73 e3bd
00000050: 6f67 d93f 684b d03f 361c 543f af61 c13f
00000060: 5d27 00c0 c79c 82bd 816d ca3f 217d cd3f
00000070: f084 1240 c8c4 e0be 6ab6 8a3f b691 953e
00000080: 2481 993e b997 56bd 007e 053e ed57 71be
00000090: 5622 5a3d 87d7 3a3d 8c68 633d d149 1c3d
000000a0: f266 a63c 2707 c9bc 9854 403d 9edf 18be
000000b0: 25df 60bd f5f8 13be e5a0 bfbe fc6b 263d
000000c0: f316 483e 18cb 9a3d e713 34ba 2189 9fbd
000000d0: baf8 b83e c068 e9bd d320 1bbb c99b 71be
000000e0: 2675 40be 7e1a 383e 21a5 183e 0424 973c
000000f0: 8825 33be 60f9 a2be 7e59 0b3c 69ed 673d

22 f4 [32, 32]
-0.04724194 0.024825603 -0.074664235 -0.037495945 0.2163453 0.0031098668 -0.70044184 0.09792292
-0.11004737 -0.21467635 -0.3783848 -0.06427625 -0.060684867 -0.1822169 0.04429615 -0.13780996
0.39202902 0.25885364 -0.15073085 0.113769874 0.15928422 -0.019237567 -0.175623 -0.3588816
-0.039789084 -0.14839436 0.3936503 -0.14985065 0.29260325 0.14191562 -0.20267572 0.1592088
-0.0840891 -0.034721103 -0.25083202 0.015009644 0.11280278 0.08903292 -0.03716348 -0.028058987
0.00825249 -0.119596355 -0.39846024 -0.16071367 -0.0019100056 -0.12612359 -0.054970574 0.21599902
-0.07398078 0.97656685 0.14763401 0.2640975 -0.36056346 -0.125063 0.04317927 -0.11712994
-0.006456935 0.08032697 0.7542542 0.041352715 -0.046280455 -0.050378487 -0.58357316 0.21573119
-0.11734705 -0.14453565 -0.0038755971 -0.0051820315 -0.047253046 0.18706211 -0.55691546 0.06396946
0.14216337 0.05419668 -0.18919703 -0.16691698 -0.09487041 0.0058955597 0.03829875 0.2402588
0.10888598 0.014766062 -0.04240985 -0.005878698 -0.027028287 -0.07735096 0.067232855 -0.12676054
-0.09968408 0.20201813 -0.019768614 -0.034070823 0.06473832 0.08102332 -0.43023053 -0.062309235
-0.047467772 0.30542463 -0.04548939 0.1262733 -0.040451832 -0.3477041 0.1905635 0.19233501
-0.18950464 -0.07620988 -0.06832585 -0.06616597 -0.34384555 0.07632275 0.009000482 -0.07330898
-0.20880115 -0.21283796 -0.12649024 0.061785117 0.35717168 -0.38012397 -0.13545991 -0.79304767
-0.20568164 -0.06978857 0.3098678 0.011924155 0.08800251 -6.0487804e-05 0.16353053 0.11928258
-0.031831402 0.0051481863 -0.021427117 0.07679658 -0.4031787 0.03303189 0.57208645 0.062993795
-0.07772387 0.26037532 0.25183797 0.30574033 0.14523636 0.35082904 0.18546376 0.18727922
-0.52776563 -0.4806868 0.19576536 -0.42313528 0.051225085 -0.11795991 -0.13212809 1.096743
0.36102965 0.2292961 -0.78130525 0.25919366 -0.41898453 -0.22045337 0.61543715 -0.1349527
-0.035624083 -0.1413291 0.12822634 0.05339773 0.0061987583 -0.19900495 0.44063783 -0.07802201
0.14052843 0.10626259 0.5049284 0.18716845 0.08391281 0.21353957 0.3352688 0.32835522
-0.51454836 -0.63674736 0.2685116 -0.23129366 -0.005605105 -0.11199614 -0.07458251 0.7924618
0.41226116 0.04500775 -0.7546149 0.14224383 -0.45852864 -0.26998636 0.59919465 -0.12957473
0.09079905 -0.07358369 0.064460725 -0.22517747 -0.075095065 0.030158924 -0.02496551 -0.1395495
-0.040387783 0.25370654 0.15090111 0.109154485 0.34290898 0.080635175 0.08873604 -0.17524144
-0.18805507 -0.63521206 0.15862818 -0.0864289 -0.19091994 -0.05140642 -0.10385757 0.83216566
0.21804309 -0.011101553 -0.4840967 0.13007437 -0.08856163 -0.19506912 0.17555544 -0.28663453
-0.07346249 0.035732448 -0.08422362 -0.20146172 -0.07060437 0.005033329 0.35625446 0.12782168
-0.18107441 0.41574565 0.46687225 0.47668466 0.35326642 0.38824436 0.25331634 -0.06003573
-0.76302713 -0.7760544 0.18260899 -0.29773372 -0.17768803 -0.066392906 -0.081268184 0.6879612
0.27205563 -0.12990166 0.04456066 0.28341016 -0.44248304 -0.49284974 0.41153422 -0.12222122
00000000: c480 41bd 105f cb3c 90e9 98bd 5995 19bd
00000010: 9f89 5d3e e8ce 4b3b 2850 33bf d08b c83d
00000020: 8460 e1bd 1ed4 5bbe a7bb c1be 44a3 83bd
00000030: b290 78bd 1197 3abe e16f 353d 0e1e 0dbe
00000040: 07b8 c83e 7788 843e 3059 1abe 2e00 e93d
00000050: 671b 233e 1a98 9dbc 84d6 33be 54bf b7be
00000060: e1f9 22bd b1f4 17be 888c c93e 7372 19be
00000070: 18d0 953e 5452 113e 398a 4fbe a207 233e
00000080: e836 acbd b737 0ebd 0e6d 80be 03eb 753c
00000090: 2505 e73d e456 b63d bc38 18bd f6db e5bc
000000a0: 7435 073c efee f4bd fb02 ccbe 2092 24be
000000b0: 2759 faba 8b26 01be d328 61bd d92e 5d3e
000000c0: 3c83 97bd 4900 7a3f 5f2d 173e ca37 873e
000000d0: c69b b8be 8410 00be bfdc 303d d2e1 efbd
000000e0: b294 d3bb 7782 a43d ce16 413f 7761 293d
000000f0: 9390 3dbd ac59 4ebd 0d65 15bf a3e8 5c3e
00000100: a653 f0bd 2701 14be bbfd 7dbb 08ce a9bb
00000110: 698c 41bd 368d 3f3e 0392 0ebf 6c02 833d
00000120: 4693 113e 57fd 5d3d debc 41be 49ec 2abe
00000130: 6b4b c2bd 8a2f c13b 26df 1c3d 6706 763e
00000140: 9dff de3d 5aed 713c f3b5 2dbd 18a2 c0bb
00000150: 6d6a ddbc 2e6a 9ebd 61b1 893d 84cd 01be
00000160: 2b27 ccbd d7dd 4e3e caf1 a1bc d98d 0bbd
00000170: 8695 843d 8eef a53d 2d47 dcbe f837 7fbd
00000180: 916d 42bd 9e60 9c3e 1553 3abd ca4d 013e
00000190: d2b0 25bd 4606 b2be 1423 433e 78f3 443e
000001a0: 810d 42be ed13 9cbd 6cee 8bbd 0682 87bd
000001b0: 860c b0be 1a4f 9c3d c276 133c 0523 96bd
000001c0: f8cf 55be 32f2 59be a886 01be 6412 7d3d
000001d0: 35df b63e 9c9f c2be 01b6 0abe 2c05 4bbf
000001e0: 359e 52be 4fed 8ebd fea6 9e3e 885d 433c
000001f0: a93a b43d 49b4 7db8 8c74 273e 6d4a f43d
00000200: a561 02bd 1eb2 a83b ec87 afbc 8647 9d3d
00000210: 706d cebe 724c 073d 4274 123f e402 813d
00000220: b12d 9fbd ea4f 853e e8f0 803e ff89 9c3e
00000230: d7b8 143e dd9f b33e 36ea 3d3e 20c6 3f3e
00000240: a61b 07bf 951c f6be b776 483e 30a5 d8be
00000250: 65d1 513d f794 f1bd 964c 07be 1362 8c3f
00000260: e1d8 b83e 99cc 6a3e 9f03 48bf 08b5 843e
00000270: 2485 d6be 87be 61be 4a8d 1d3f 0a31 0abe
00000280: 8fea 11bd 93b8 10be c44d 033e 94b7 5a3d
00000290: f41e cb3b f4c7 4bbe 489b e13e 01ca 9fbd
000002a0: afe6 0f3e 33a0 d93d fd42 013f 16a9 3f3e
000002b0: 7bda ab3d 1eaa 5a3e 5aa8 ab3e 2d1e a83e
000002c0: 71b9 03bf e001 23bf 5a7a 893e 3fd8 6cbe
000002d0: 07ab b7bb 3b5e e5bd b7be 98bd c7de 4a3f
000002e0: e513 d33e 0c5a 383d 712e 41bf 5ea8 113e
000002f0: 44c4 eabe a73b 8abe d264 193f 3daf 04be
00000300: daf4 b93d 0cb3 96bd fc03 843d ec94 66be
00000310: 71cb 99bd d90f f73c 7884 ccbc 10e6 0ebe
00000320: a96d 25bd d3e5 813e d285 1a3e 638c df3d
00000330: c491 af3e 0e24 a53d 3ebb b53d 7e72 33be
00000340: 8291 40be 429d 22bf 6d6f 223e a301 b1bd
00000350: 8480 43be 8a8f 52bd 47b3 d4bd cf08 553f
00000360: b046 5f3e 4ae3 35bc 86db f7be 3732 053e
00000370: cd5f b5bd 33c0 47be cec4 333e c3c1 92be
00000380: 8173 96bd 305c 123d 6f7d acbd fb4b 4ebe
00000390: 0699 90bd a0ee a43b fc66 b63e b0e3 023e
000003a0: 926b 39be 9ddc d43e e109 ef3e 0310 f43e
000003b0: 56df b43e f7c7 c63e aeb2 813e 07e8 75bd
000003c0: bf55 43bf 80ab 46bf dafd 3a3e 8e70 98be
000003d0: daf3 35be 01f9 87bd ef6f a6bd 3a1e 303f
000003e0: e04a 8b3e f104 05be 3d85 363d 231b 913e
000003f0: 238d e2be cd56 fcbe 9db4 d23e 1e4f fabd

23 f4 [32, 1]
0.00043333607 0.0006153425 0.00020542294 -0.036358476 0.14597693 -0.0024337883 -0.29923305 0.0012644285
0.0012734865 -0.21399343 -0.011044895 -0.15446608 0.003535512 -0.0875476 -0.00042120693 0.0006775408
0.26452082 0.0012806054 -0.034865472 -0.01189638 -0.0004278718 -0.0025351082 -0.0011047083 0.010786313
-0.2996954 -0.00016989581 -0.01122546 -0.039850034 0.36514878 0.1945686 0.008313523 0.1274078
00000000: 6231 e339 f04e 213a cd66 5739 a0ec 14bd
00000010: fa7a 153e 3180 1fbb 1335 99be 2ebb a53a
00000020: 1eeb a63a 1821 5bbe a6f5 34bc 5b2c 1ebe
00000030: 0cb4 673b 284c b3bd 70d5 dcb9 fe9c 313a
00000040: 466f 873e fdd9 a73a 19cf 0ebd 09e9 42bc
00000050: fb53 e0b9 0f24 26bb dccb 90ba 13b9 303c
00000060: ad71 99be 0f26 32b9 feea 37bc ca39 23bd
00000070: c8f4 ba3e fe3c 473e 7135 083c 3177 023e
